…
2024-04-21 18:20:49 INFO     HTTP Request: POST https://tmap-openai.openai.azure.com//openai/deployments/gpt4/chat/completions?api-version=2023-09-15-preview "HTTP/1.1 200 OK"
2024-04-21 18:20:54 INFO     HTTP Request: POST https://tmap-openai.openai.azure.com//openai/deployments/gpt4/chat/completions?api-version=2023-09-15-preview "HTTP/1.1 200 OK"
2024-04-21 18:20:54 INFO     GPT4 ZS ETS Duration - 13.1426 seconds
2024-04-21 18:20:59 INFO     Generating BERT Abstractive Summaries (After Fine Tuning) ...
2024-04-21 18:21:10 INFO     BERT FT ATS Duration - 11.2453 seconds
2024-04-21 18:21:13 INFO     T5 Model Fine Tuned Arch: 
T5ForConditionalGeneration(
  (shared): Embedding(32128, 512)
  (encoder): T5Stack(
    (embed_tokens): Embedding(32128, 512)
    (block): ModuleList(
      (0): T5Block(
        (layer): ModuleList(
          (0): T5LayerSelfAttention(
            (SelfAttention): T5Attention(
              (q): Linear(in_features=512, out_features=512, bias=False)
              (k): Linear(in_features=512, out_features=512, bias=False)
              (v): Linear(in_features=512, out_features=512, bias=False)
              (o): Linear(in_features=512, out_features=512, bias=False)
              (relative_attention_bias): Embedding(32, 8)
            )
            (layer_norm): T5LayerNorm()
            (dropout): Dropout(p=0.1, inplace=False)
          )
          (1): T5LayerFF(
            (DenseReluDense): T5DenseActDense(
              (wi): Linear(in_features=512, out_features=2048, bias=False)
              (wo): Linear(in_features=2048, out_features=512, bias=False)
              (dropout): Dropout(p=0.1, inplace=False)
              (act): ReLU()
            )
            (layer_norm): T5LayerNorm()
            (dropout): Dropout(p=0.1, inplace=False)
          )
        )
      )
      (1-5): 5 x T5Block(
        (layer): ModuleList(
          (0): T5LayerSelfAttention(
            (SelfAttention): T5Attention(
              (q): Linear(in_features=512, out_features=512, bias=False)
              (k): Linear(in_features=512, out_features=512, bias=False)
              (v): Linear(in_features=512, out_features=512, bias=False)
              (o): Linear(in_features=512, out_features=512, bias=False)
            )
            (layer_norm): T5LayerNorm()
            (dropout): Dropout(p=0.1, inplace=False)
          )
          (1): T5LayerFF(
            (DenseReluDense): T5DenseActDense(
              (wi): Linear(in_features=512, out_features=2048, bias=False)
              (wo): Linear(in_features=2048, out_features=512, bias=False)
              (dropout): Dropout(p=0.1, inplace=False)
              (act): ReLU()
            )
            (layer_norm): T5LayerNorm()
            (dropout): Dropout(p=0.1, inplace=False)
          )
        )
      )
    )
    (final_layer_norm): T5LayerNorm()
    (dropout): Dropout(p=0.1, inplace=False)
  )
  (decoder): T5Stack(
    (embed_tokens): Embedding(32128, 512)
    (block): ModuleList(
      (0): T5Block(
        (layer): ModuleList(
          (0): T5LayerSelfAttention(
            (SelfAttention): T5Attention(
              (q): Linear(in_features=512, out_features=512, bias=False)
              (k): Linear(in_features=512, out_features=512, bias=False)
              (v): Linear(in_features=512, out_features=512, bias=False)
              (o): Linear(in_features=512, out_features=512, bias=False)
              (relative_attention_bias): Embedding(32, 8)
            )
            (layer_norm): T5LayerNorm()
            (dropout): Dropout(p=0.1, inplace=False)
          )
          (1): T5LayerCrossAttention(
            (EncDecAttention): T5Attention(
              (q): Linear(in_features=512, out_features=512, bias=False)
              (k): Linear(in_features=512, out_features=512, bias=False)
              (v): Linear(in_features=512, out_features=512, bias=False)
              (o): Linear(in_features=512, out_features=512, bias=False)
            )
            (layer_norm): T5LayerNorm()
            (dropout): Dropout(p=0.1, inplace=False)
          )
          (2): T5LayerFF(
            (DenseReluDense): T5DenseActDense(
              (wi): Linear(in_features=512, out_features=2048, bias=False)
              (wo): Linear(in_features=2048, out_features=512, bias=False)
              (dropout): Dropout(p=0.1, inplace=False)
              (act): ReLU()
            )
            (layer_norm): T5LayerNorm()
            (dropout): Dropout(p=0.1, inplace=False)
          )
        )
      )
      (1-5): 5 x T5Block(
        (layer): ModuleList(
          (0): T5LayerSelfAttention(
            (SelfAttention): T5Attention(
              (q): Linear(in_features=512, out_features=512, bias=False)
              (k): Linear(in_features=512, out_features=512, bias=False)
              (v): Linear(in_features=512, out_features=512, bias=False)
              (o): Linear(in_features=512, out_features=512, bias=False)
            )
            (layer_norm): T5LayerNorm()
            (dropout): Dropout(p=0.1, inplace=False)
          )
          (1): T5LayerCrossAttention(
            (EncDecAttention): T5Attention(
              (q): Linear(in_features=512, out_features=512, bias=False)
              (k): Linear(in_features=512, out_features=512, bias=False)
              (v): Linear(in_features=512, out_features=512, bias=False)
              (o): Linear(in_features=512, out_features=512, bias=False)
            )
            (layer_norm): T5LayerNorm()
            (dropout): Dropout(p=0.1, inplace=False)
          )
          (2): T5LayerFF(
            (DenseReluDense): T5DenseActDense(
              (wi): Linear(in_features=512, out_features=2048, bias=False)
              (wo): Linear(in_features=2048, out_features=512, bias=False)
              (dropout): Dropout(p=0.1, inplace=False)
              (act): ReLU()
            )
            (layer_norm): T5LayerNorm()
            (dropout): Dropout(p=0.1, inplace=False)
          )
        )
      )
    )
    (final_layer_norm): T5LayerNorm()
    (dropout): Dropout(p=0.1, inplace=False)
  )
  (lm_head): Linear(in_features=512, out_features=32128, bias=False)
)
2024-04-21 18:21:13 INFO     Generating T5 Abstract Summaries (After Prompt Tuning) ...
2024-04-21 18:21:35 INFO     GPT35 FT ETS Duration - 21.6029 seconds
2024-04-21 18:21:35 INFO     Generating GPT35 Extractive Summaries (After Prompt Tuning) ...
2024-04-21 18:21:38 INFO     HTTP Request: POST https://tmap-openai.openai.azure.com//openai/deployments/gpt35/chat/completions?api-version=2023-09-15-preview "HTTP/1.1 200 OK"
…
